mnist_cnn.pth (torch, 903913 bytes, 8 tensors)

conv.0.weight f4 [32, 1, 3, 3]
00000000: a4dd b3be 5a88 a53e 4aa9 0a3e 39a9 bbbe
00000010: 57ea 8d3e 3cbb 363d 64d5 7e3e b678 b43e
00000020: ffd2 cb3d c358 81bd aced 7dbe 570b 15be
00000030: 5b90 05bf d547 bebe 3428 97bd 179c 1c3e
00000040: b185 ee3e c574 7f3e bb5c c13e 1c17 ea3e
00000050: 505c e4bd c4e6 ebbd 759e df3e aa79 c33c
00000060: 1244 18bf 5011 58be f303 8a3e 13e0 a5be
00000070: ca80 e23e aacd a93e 73fd 9b3e 760e e4bd
00000080: cd9c e9bd 21b5 a6bd c7b3 0d3d c152 0ebf
00000090: f92e c1be de61 e3be 683e a8be 26ed 4fbd
000000a0: 7c38 303e ff34 17be 7d57 863e 5d2e ad3e
000000b0: 26c2 fc3e c32d 4abe 7c6e a4be ad72 9a3e
000000c0: dd37 06bf c8f0 1d3e 32f0 813d 3a1e 77be
000000d0: 9e8c a13e 702d 973e 4858 e53e 2873 cc3d
000000e0: ecad cf3e 9ac7 583e 65f4 bebd 078d 5dbe
000000f0: 11e5 fcbe c6b3 81be f54f 9bbd af2d a73e
00000100: 6c2c 3d3e 99c4 d73e 5226 53bc d2c6 5bbe
00000110: 44c0 bcbe 6e74 573e 5231 293e 2865 17bf
00000120: 03f4 ab3e 7769 6b3e 1708 2639 aff1 38be
00000130: 6f1b 153b f2a0 b83e a999 7c3d 1256 9b3d
00000140: 01bc 74be e8a4 afbe 7c83 74be e852 fbbe
00000150: 5579 713e 20a9 22be 7007 3bbe 7e64 0a3f
00000160: bc16 6ebe 17bc 0b3e e473 86be 16fc 923e
00000170: a28d 993d 3f56 283e 3d10 993e 0833 be3e
00000180: eb50 2f3e 5603 e4bc c706 033e fb8c f9bc
00000190: 5bb5 c83d 0382 803d 0bdc 1f3e 1f89 8abe
000001a0: e6be 98be a93c 863e f405 cbbd 51b9 1f3d
000001b0: b875 32be f8a1 c73d de75 1e3e 9d25 b23e
000001c0: da13 943e f8c2 d03d b926 bb3e 1b59 86be
000001d0: a48b 683e b260 dc3c ffbd dabe e8fc e73c
000001e0: 9762 873e 91e4 ca3e 9822 2c3c cd87 973d
000001f0: 1a25 af3e 8897 03be 2760 8cbe 3d72 48be
00000200: 0c89 853e 123c e3be c26f c2bd f898 b7be
00000210: 8ec3 003f b7a6 2cbd eb54 dc3d 7baf 943e
00000220: 2669 5b3e 959c cb3e d8bf 16be 0444 8e3e
00000230: 2d9c 583d b9df 8cbe 1d9e 02bf 4bdd e6be
00000240: b040 a53e ce51 0c3e d364 2abe 6e7e 7c3e
00000250: 6598 ab3d 6c1b abbe 65a6 c03c 49e8 f33d
00000260: d467 debe 6b28 ca3d f4c1 b13e c690 2c3e
00000270: 5158 02bf 7708 e3be 183c 1ebe ea3d 373e
00000280: ac55 673e e153 18be 19b2 f53c d29a f03d
00000290: 3064 623e f019 e43d a240 363e 9c4f 993e
000002a0: d7fe d2be 08d8 20be 1fcb e43e fe47 033f
000002b0: 754a 443e 17e3 8c3e fffe c53e 89ca 76bd
000002c0: 960b 99be 1de7 a2be 29dd 20bf 58a2 83be
000002d0: 3f13 8e3e 86a8 d1be b184 b9be 7e3d d73e
000002e0: aa07 8c3e cfba a83e aec8 033d 556c c4bd
000002f0: 307b 843d 7a10 8f3e aa82 aa3e e06d 0cbe
00000300: c19d 28bd 3d9f ef3d 9817 573e b2ce dd3d
00000310: f15f 3a3c 4398 9f3e bc6d 313e c4da af3d
00000320: 1af1 7b3e 7926 0dbd fb4e 3e3e d7f1 7d3e
00000330: 7f28 0bbf dcbd a2be 32c8 0bbd d64e d1be
00000340: 1b6c 28be 8b39 e5be ad8c 563e 84ae d33e
00000350: 3507 9bbe 80c4 f93b d79d b63d 97b0 97bd
00000360: 30e0 19be 2806 ffbd ef62 0dbf f79c 673d
00000370: 4cd1 14bf df44 20be 3bac 05bf 7dbd 8cbe
00000380: 97ac c73e 8722 44be db97 38be 2d9e e93e
00000390: a848 dcbe 810d 41be 9d87 dd3e 60db f4be
000003a0: deb0 77bd 27a5 ab3e 281b 443e 9bc0 ddbd
000003b0: 66e4 873e 7d8b c13e 2272 86be 9693 913d
000003c0: d79d c53c 5df5 7dbe 3829 0fbd be5e 9abc
000003d0: 0a5b a93e 77c7 35be c35e 763e 0bbb de3d
000003e0: 0d89 fbbe 9a4b d63e a900 8abe 6df0 3cbe
000003f0: a879 083d 7e66 70be 80e5 813d 7cf9 93be
-0.35130036 0.3233059 0.13541141 -0.36652544 0.2771785 0.044612154 0.2488609 0.35248345
0.09952354 -0.06315758 -0.24797696 -0.14555107 -0.52173394 -0.37164178 -0.07380715 0.15293919
0.46586373 0.24946888 0.3776606 0.45720756 -0.1115042 -0.115186244 0.4367558 0.023861725
-0.5947887 -0.21100354 0.26956138 -0.32397518 0.44238883 0.33164722 0.30466804 -0.11135571
-0.114068605 -0.08140016 0.034595277 -0.5559502 -0.3773115 -0.44410604 -0.32860112 -0.05076327
0.17209047 -0.1476631 0.26238623 0.33824435 0.49366874 -0.19744019 -0.32115543 0.30165616
-0.5242899 0.15423882 0.06344642 -0.24132624 0.31552595 0.29526854 0.44793916 0.09982902
0.4056238 0.21169892 -0.09323958 -0.21635829 -0.49393514 -0.2533247 -0.0758361 0.3265204
0.18473977 0.4214218 -0.012887554 -0.21462563 -0.36865437 0.21040508 0.1652272 -0.5913873
0.33584604 0.2298945 0.00015834007 -0.18060945 0.0022751947 0.36060292 0.06166998 0.07584776
-0.23899843 -0.343055 -0.23878282 -0.4908669 0.23581441 -0.15884829 -0.18264556 0.5405959
-0.2325086 0.1364597 -0.26260293 0.2870795 0.074977174 0.1643915 0.298952 0.3714831
0.17120712 -0.027833622 0.12795554 -0.030462733 0.09800216 0.06274798 0.15611283 -0.2705774
-0.29833144 0.26218155 -0.09913245 0.03899509 -0.17427719 0.0974769 0.1547465 0.34794322
0.28921396 0.10193437 0.3655298 -0.26239857 0.22709519 0.026901577 -0.4272308 0.028318837
0.26442406 0.39627507 0.010506295 0.07398949 0.34207994 -0.12850773 -0.27417108 -0.19574828
0.2608112 -0.44381768 -0.09493972 -0.35858893 0.5029839 -0.04215118 0.10758384 0.2904013
0.2142683 0.397679 -0.1472162 0.27786267 0.052883316 -0.27514437 -0.5102251 -0.45090708
0.32275915 0.13703081 -0.16640024 0.24657604 0.08378676 -0.3341936 0.023516843 0.11909539
-0.4343859 0.0987099 0.34718287 0.16852102 -0.5091601 -0.44342396 -0.15452611 0.17894712
0.22591275 -0.14875747 0.02999215 0.1174828 0.22108531 0.1113776 0.17798093 0.2994355
-0.41210052 -0.1570741 0.4468622 0.51281726 0.19169028 0.27517006 0.3867111 -0.060251746
-0.29891652 -0.3181695 -0.62837464 -0.25709796 0.2774906 -0.40948886 -0.36234048 0.42039102
0.27349597 0.32955024 0.032173805 -0.09590975 0.06468809 0.27942258 0.33302814 -0.13713789
-0.04116607 0.11700294 0.21005094 0.108304396 0.011375413 0.31170854 0.17327017 0.08586648
0.24603692 -0.03446052 0.18584816 0.24799286 -0.5435867 -0.31785476 -0.034126468 -0.4088046
-0.16447489 -0.44770464 0.20952101 0.41344082 -0.30278936 0.0076223016 0.08916824 -0.07406729
-0.15026927 -0.12452346 -0.55229086 0.056546178 -0.5813186 -0.15651272 -0.5221593 -0.27488318
0.38998863 -0.19153796 -0.18026678 0.4562849 -0.43024182 -0.18852808 0.43267527 -0.4782362
-0.060471408 0.3352444 0.19150984 -0.10827752 0.26541442 0.37801734 -0.2625895 0.07108228
0.024123115 -0.2480063 -0.03495142 -0.018844005 0.3307727 -0.17751871 0.24059586 0.10875519
-0.49128 0.41854554 -0.2695363 -0.1845109 0.033319145 -0.23476598 0.06342602 -0.2890128

conv.0.bias f4 [32]
00000000: e336 d13d a8c0 863e edb8 41be b869 81bc
00000010: d6c0 c03d 6cf4 1cbb bac3 b83c cc50 1bbd
00000020: bb66 2cbe 360f 113e 7179 9bbe f236 54bc
00000030: 28fb 48be 4495 91bc 2175 013e 68e4 0d3e
00000040: 7565 7e3d 2716 703c d17c 37be 4872 723e
00000050: 004b e8bd 7dc0 6fbd 93e0 f63c 1b98 5ebe
00000060: 6fdd be3e 60e9 d03d 18fa 03bd 949d f7bb
00000070: c3fe 76be 9dd0 713d 77ee f6bc ac84 d2bc
0.10215547 0.2631886 -0.189182 -0.015797481 0.094117805 -0.0023949398 0.022554267 -0.03791885
-0.16836064 0.14165959 -0.3036609 -0.012952553 -0.19627059 -0.01777137 0.12642337 0.13856661
0.062108476 0.014653719 -0.17918707 0.23676407 -0.1134243 -0.05853318 0.030136382 -0.21737711
0.37278315 0.10200763 -0.03222093 -0.0075566266 -0.24120621 0.05903684 -0.030143006 -0.025698029

conv.3.weight f4 [64, 32, 3, 3]
00000000: 787a 50bd d094 a0bc 1fde 533d e34e 37bb
00000010: 89ff 28bc dded 3a3d 657b 153b ddff bbbd
00000020: 5540 8dbd 8f73 0a3d 1540 52bd c92a 0ebe
00000030: 7030 20be e025 d0bd 0737 aebc 1126 1dbd
00000040: c953 8dbd 861e b7bd 472d 133d b454 08bd
00000050: 1ef2 2c3d 8f2a c13d 1cd2 073e dbcd ef3d
00000060: e66e 16bd cbbf 7a3d b8fe 1b3e 9eb9 acbc
00000070: 9f1d 423c a6f9 a63d cf35 653d 50ca a1bd
00000080: 518e 88bd 9794 aabc 06a3 793d 4e5c 2f3d
00000090: 26e7 923c a1a0 15bd fd41 08be 2e19 0bbe
000000a0: 7e29 fbbd 452b 983d 6dc9 8bbc 4a8f a1bd
000000b0: 4e3f 0d3e 674c 063e 4181 883c 2101 1f3e
000000c0: b41f 93bc 4123 a93c 6d33 fd3b 34d0 b5bd
000000d0: e221 babd b94a 12be e840 cbbd 1fc9 d2bd
000000e0: ad5b e63c 028f 163d e362 dfbd d4a5 83bd
000000f0: 0555 093e cef7 ef3d caf2 013e 27eb 39bd
00000100: b6ec 7c3d c93f da3d 14dd e6bc 8294 06bd
00000110: 591d ed3b 5bd2 4cbd ab2d d2bc 47ed b2bb
00000120: d65d 823c a1b1 d63b 5990 ff3c a8ce 97bd
00000130: e55d bfbc 8a62 173d 1aa1 cbbb 2ce8 683c
00000140: 66e7 093d 453c 33be 5192 22bd fe83 10be
00000150: f2a7 53be 510b 53be c34f d0bd 1323 57be
00000160: d185 1ebe 5b54 1cbe 1820 723c ab2e 2f3d
00000170: e26d f5bb 49ff 77bd 9d5b fabc 5c20 9abd
00000180: 9aab a8bd df17 da3c e460 0bbc 3d64 07be
00000190: c66c 1ebd 30ed f2bc b2c8 dabc 856b 97bd
000001a0: e24c 453d 0eda 0bbc 0299 05bd 5bbd 6bbd
000001b0: 7bfd 8b3d 9ed0 debc 1ec0 553d c767 b4bc
000001c0: 63df 9dbc f065 b63c 1df5 e53c 380f a0bc
000001d0: bc78 0abd f991 893d bd28 0bbd 0d9c b03c
000001e0: 1a41 62bd f093 58bd 7cd6 cc3c 4265 f9bc
000001f0: 0f09 febb 3331 c43c 10ca 253d 4a72 34bd
00000200: 8da2 15be 2160 cabd 0c88 edbd 6dfe c53c
00000210: 5375 9a3c 1b13 86bd 5f8b 6abd e573 00be
00000220: 65b2 33be 27ad 9dbc 71f0 babd 97ec 2bbd
00000230: a574 3bbd 56f8 1a3c d585 433d 133a 093e
00000240: 46be 8ebd 2167 903c 2d25 bd3d 8ac7 edbc
00000250: 897f f1bc e4dc cebc 25fc 6dbd 8173 10bd
00000260: 9a56 3b3c d31e 69be 4f19 a6be f44a d2bb
00000270: da20 6dbe f6d2 f7bd 0013 973a 3691 eabb
00000280: 5c46 97bd d23b 0d3e 10be 18bd 3844 03bd
00000290: dc17 1e3c caa9 513d b01e c8bc 6396 d83c
000002a0: 3f4f 4abd 275b 65bb 3eaa c53d 3cb4 2ebe
000002b0: 6216 92bc 5c26 693d 4e0e 87bd 33d9 9abc
000002c0: dfb2 91bd e742 5cbc e6b1 21bd 915c 1a3d
000002d0: 2f57 803c 4ec7 563d 7e59 1ebd 3eb8 7dbd
000002e0: 3c31 3a3c 6482 bb3b 1772 b3bb 0067 243c
000002f0: 5bc6 0b3e 979d 113d f28c b53c 1741 193d
00000300: 96bf db3c 066a 6a3d d9e9 3dbd c4f2 b4bc
00000310: ed91 1a3d 8f59 713d 5158 f3ba 1a7a 73bc
00000320: 7684 47bb 57fe 333c ca41 99bc 848c ab3a
00000330: 7ddc 06bd cc04 aa3c cdbd 093e df36 f3bd
00000340: bfd6 4fbe d73a 283e 2597 11bd 1901 5fbd
00000350: ea92 10be 9ef6 b13c 88b6 1cbd 7543 54be
00000360: da6b fdbb 46ee 26bb 4b4d 61be 6c1d b7bd
00000370: f53f a6bd 56e8 24be f066 8fbd 27f9 28bd
00000380: 50eb ccbd 41d5 9c3d 0b2c bcbb c8dd ef3d
00000390: 5f4b 18bd 20c9 003d 3e01 c0bc d0ad cabd
000003a0: 0eff c1bc 6685 89bc c291 edbc 5ea9 913b
000003b0: a805 ed3d d468 513c f3a3 93bc ec8b 42bd
000003c0: c765 bfbd f143 60bd 936a 2bbd 5cb4 a0bd
000003d0: 7667 d53c b35f 833e 56ef ddbc e595 b2bd
000003e0: 85e2 253e c5a7 21be 39cf 04be df9e 1fbe
000003f0: 2651 a93c 8ea4 8cbc a434 3dbc 7207 b53c
-0.050898045 -0.01960221 0.051725503 -0.0027970604 -0.010314831 0.045637 0.0022809145 -0.091796614
-0.06897036 0.03380161 -0.051330645 -0.13883509 -0.15643477 -0.10163474 -0.021266473 -0.03836638
-0.069007464 -0.08941369 0.03593185 -0.033283904 0.04222309 0.094319455 0.13263744 0.11709186
-0.036726855 0.061218064 0.15233886 -0.021084603 0.0118478825 0.081530854 0.05595952 -0.07899916
-0.0666777 -0.020822806 0.060946487 0.042812638 0.017932486 -0.03653014 -0.13306423 -0.13583824
-0.122637734 0.07430128 -0.01706382 -0.07888658 0.1379368 0.13115083 0.016663196 0.15527774
-0.017959453 0.020646693 0.0077270777 -0.08877602 -0.09088494 -0.14286317 -0.09924489 -0.10292267
0.028119886 0.036757477 -0.10907533 -0.064281136 0.13411339 0.11717187 0.12690273 -0.045390274
0.061749183 0.10656697 -0.02818159 -0.03285647 0.0072361645 -0.050005298 -0.025656542 -0.0054604146
0.015913885 0.0065519367 0.03119676 -0.074124634 -0.023360202 0.03695921 -0.006214273 0.01421551
0.033667944 -0.1750346 -0.03969032 -0.14112851 -0.20669535 -0.20609786 -0.10171463 -0.21009474
-0.15480734 -0.15266554 0.01477816 0.042769115 -0.0074899057 -0.060546193 -0.030561263 -0.07525703
-0.082358554 0.02662271 -0.008506987 -0.13221832 -0.038677953 -0.029654115 -0.026707027 -0.073935546
0.048169024 -0.008535875 -0.032616623 -0.05755363 0.06835457 -0.027199086 0.05218517 -0.022022141
-0.019271558 0.022265404 0.02807098 -0.019538507 -0.033806548 0.06717295 -0.033974398 0.021558786
-0.055237867 -0.05287546 0.025004618 -0.030443791 -0.0077525447 0.023949241 0.040475905 -0.044054307
-0.1461279 -0.098816164 -0.115982145 0.024169171 0.018854773 -0.06546613 -0.05726182 -0.1254421
-0.17548521 -0.019247605 -0.09127892 -0.041973677 -0.045765538 0.009458622 0.047735054 0.1340106
-0.069698855 0.0176273 0.09235606 -0.029025812 -0.029479759 -0.025251813 -0.058101792 -0.035266403
0.011434222 -0.22765665 -0.32441184 -0.0064176265 -0.23157063 -0.121007845 0.0011526048 -0.007158424
-0.07386467 0.13792351 -0.037290633 -0.03204748 0.009649243 0.051187314 -0.024428695 0.026438897
-0.04939198 -0.0034996958 0.09651612 -0.17060941 -0.017832939 0.056921348 -0.06594525 -0.018902397
-0.07114195 -0.013443685 -0.039476298 0.037685934 0.015666572 0.052436166 -0.038659565 -0.061943285
0.011364277 0.005722331 -0.005476247 0.010034323 0.13649885 0.03555068 0.022161935 0.03741559
0.026824754 0.057230018 -0.046365593 -0.022088416 0.037736822 0.0589233 -0.0018565749 -0.014860654
-0.0030443943 0.010985932 -0.018708128 0.0013088142 -0.032925118 0.02075424 0.1345131 -0.118757
-0.20296763 0.16428696 -0.035544533 -0.054444406 -0.14118543 0.021724042 -0.038260013 -0.20728858
-0.007733804 -0.0025471612 -0.22002141 -0.08941159 -0.081176676 -0.16104254 -0.07002056 -0.041253235
-0.1000582 0.076578625 -0.005742555 0.11712223 -0.037181254 0.031441808 -0.023438092 -0.09896433
-0.02368119 -0.016787242 -0.029000167 0.004445239 0.115733445 0.012781341 -0.018022513 -0.04749672
-0.09345584 -0.054752294 -0.041849684 -0.07846901 0.02605031 0.2565895 -0.027091663 -0.08719996
0.16199692 -0.15786655 -0.12969674 -0.15587948 0.020668577 -0.01716831 -0.011548195 0.022098277

conv.3.bias f4 [64]
00000000: ed1c b4bd 009e 9bbd 7e8c 23bc 9b1b 1ebd
00000010: d019 82bd 0815 53bd bda9 84bc 1ec0 ca3c
00000020: 708c 9bbd ba42 a6bc 5394 e4bc 1914 ea3c
00000030: 5654 8bbd 2ea0 abbc 72e3 e5ba 7898 7fbd
00000040: 4c5a 8d3b 20e8 173d ea23 acbd b16d 35bc
00000050: d5b7 7cbd 7c5c 983c 83b6 d4bc b386 113d
00000060: d644 d5bd 3ae8 ac3c a514 c2ba b26c b3bd
00000070: d8d2 81bd 4900 683b 5bec 47bd 4502 2d3d
00000080: 1602 abbd 4962 373d 972b adbc 2f11 f7bc
00000090: 045e 70bd de47 acbd bc13 87bd 884d 72bc
000000a0: 77bd c93b 9716 9bbd 06c5 dcbc cfa4 2bbd
000000b0: 9474 72bd 21bd 1cbc 8b1a 203b 0449 4c3c
000000c0: 5f61 00bd 764f 83bc 930a 76bd c5a9 cdbd
000000d0: ba39 c8bb 2e75 36bd fad7 3d3d 906a debc
000000e0: 7d3a 6c3c 7777 2ebd ba76 f1bc 9135 43bd
000000f0: fb0d bcbc c677 72bd 5dc4 94bd 0cb9 11bd
-0.0879458 -0.075984955 -0.009982226 -0.038600545 -0.063525796 -0.05153373 -0.016194219 0.024749812
-0.07595146 -0.02029549 -0.027902758 0.028574036 -0.06803195 -0.020950403 -0.0017539097 -0.062401265
0.0043137427 0.037086606 -0.084052876 -0.011073516 -0.061698753 0.018598787 -0.025965935 0.03552885
-0.1041352 0.021106828 -0.0014807178 -0.08760966 -0.063390434 0.003540056 -0.04880939 0.042238493
-0.08350007 0.044771466 -0.02113895 -0.030159561 -0.05868341 -0.08412145 -0.06595561 -0.014788993
0.006156619 -0.07572668 -0.026949417 -0.04190522 -0.05919321 -0.009566576 0.0024429883 0.01246858
-0.03134286 -0.0160291 -0.060068678 -0.100421466 -0.006110397 -0.044545345 0.04634855 -0.027150422
0.014418242 -0.0425944 -0.029475559 -0.047658507 -0.022955885 -0.059196256 -0.07264016 -0.035576865

fc.1.weight f4 [128, 1600]
00000000: 118e 4eba c113 aa39 4443 713b 285c e6bb
00000010: 0dae 4abc 9892 0ebc 0373 5abb fdff c0bc
00000020: 017a 16bc 390d 3fbb f12c 973c d25f c1bc
00000030: 99a1 d93a d197 4bbc b9dd d6bc d3bd 7b3c
00000040: 4e57 153c df35 9d39 82ed 063c a920 8c3c
00000050: bcea 4d3c adee 94b8 e735 7fbc c380 843c
00000060: ac68 aebb ca89 69bc 86e2 56bc 9cd5 5e3c
00000070: 5d25 c8bc 3726 3a3b 5b50 b0bc 12a7 0a3b
00000080: 2204 e8bc e8f0 b2bc e9f9 57bc 0058 063c
00000090: caac 483c 290f c1bc e8b1 023c 454f 81bc
000000a0: 4702 91bc 0d0a 973c ef3d 4cbc d35b 6f3c
000000b0: 1d1e a43b 917d b5bb cd01 d9bc 270e 753c
000000c0: 91e3 67bc 2b88 9dbc ded6 eb3c 0557 f83c
000000d0: 915b dfbb 8b28 8dba 4c18 f8bc d30f 223c
000000e0: 3f53 893c 1dc3 923c 5788 32b9 6a53 bcb9
000000f0: 1f52 00bc b2a2 4dbb 73b6 55bb 5e37 3cbc
00000100: 62ed 453b 33fe e73c 1d22 bdbc 0a29 123c
00000110: 331f 903c fb5b d93b a1b7 89ba 0de6 e43b
00000120: 521e e5bb c366 573c 47ec 0f3c cae9 513b
00000130: 18e8 fa3b 8f2c d4bc 9139 54bc e25d 933c
00000140: b005 9a3a 09c4 853c 1281 95bc e146 8a3c
00000150: 83c4 9fbc 141a 72bc c989 9ebc 268a bbbb
00000160: fb39 02bc 22e7 5d3c e92d ab3c 5c84 d1bb
00000170: 6d4b ab3c c4c8 cd3b c089 43bb 1edf edbb
00000180: 47e0 033c cac0 c73c 0fa1 403c c2fa 0c3c
00000190: 6966 ddbb 51b0 72bc 4703 f8bc 53b6 86bc
000001a0: 9d40 be3b f2b0 793c c56f c6bc 5dc0 773c
000001b0: 1c71 54bc 38e0 763c 12c6 82bc c247 71bc
000001c0: 3d98 093c bc5f 03bc e55a f1bc 5182 67bc
000001d0: 045c f93c e410 9fbc 794e bd3c 5603 c1bb
000001e0: e29e cc3c e4f7 e03c e2ef 2b3c 4cba f7bc
000001f0: a8db c3bc 03b3 873c 6091 99bb 658b ca3c
00000200: f050 4fbc f883 acbb 2023 c6ba eace 443c
00000210: 5877 6bbb 6c72 9c3b c0bd 71ba 1e7c aabc
00000220: 470a 8c3c 9d49 a2bc 5e0a 8cbc a721 21bc
00000230: 6324 34bc bb88 383c 9bcf ae3c 949b fbbb
00000240: d262 7f3c 904f 07bb c448 9f3b 0528 8a3c
00000250: e9b6 9c3a cd5f a93c f9bd e7bc 7950 153c
00000260: db8a 1dbc f14c 843c 0063 37bc 6697 4bbc
00000270: 34fe 813a 4c8d 033c a5e5 73bc 6c74 1abc
00000280: 3089 32bc 3245 87bc c6d7 553c a523 1d3c
00000290: 37ba 42bc 2815 793c ca23 253c c813 9ebc
000002a0: 5382 843c dc88 733c a51e 993c 67ca e5bc
000002b0: 31f4 afbc 5110 86ba d66c 6ebb bd03 86bc
000002c0: 287c ae3c b173 62bc ef91 88bc 439f e4bc
000002d0: ef6d 0bbc 1de1 6c3c f08f 81bb 28c2 a5bc
000002e0: 3ed1 12bc 885c a53c 28e4 40bb d8f4 973a
000002f0: a5b0 7e3b ba93 c5bc 80f7 f9bc e9c9 f73c
00000300: 0ed7 913c 1d81 d5bc 3617 443c 7366 e93c
00000310: c0c6 c73b 65e4 883c db5f 8cbc a89f 98bc
00000320: ee82 25bc f321 533c 9893 d33c 5f8f 72bb
00000330: 43c0 a6bc 72fe d6bc cddc 463c e14c 5dbc
00000340: 81b3 e5bc 568a d93c 2bd7 05bc 90ab 9fbb
00000350: d99c e8bb f743 7b3c a2a2 86bc b327 9a3c
00000360: f1b8 c2bc 505a 22bc 05e4 bdbb aaab 11bc
00000370: 6ae7 89bb b25c 5dbc 88e7 3bbb fafc e13b
00000380: b02d e6bc f3d2 a5bc 30f4 ad3a 98b6 a53b
00000390: 84d5 05bc a3bc 73bc 406e 363b 5eb9 fa3b
000003a0: 54ed fb3c 14e1 7d3c 34cb 143c 82d2 abbc
000003b0: 4d1f 8fbc e8f8 adbc 8f8d acbc e567 75bc
000003c0: 6a2a 3abc d694 703a 1c73 043c 634e 37bc
000003d0: 290d 983c 87b8 58bc 8139 523c c9ef f9bc
000003e0: f142 af3c a5e6 92bc 4e2f a23c 419c 3b3c
000003f0: d0ab b3bc cf52 263c a2ca 213c 15e8 063c
-0.0007879446 0.00032439645 0.0036813775 -0.007030029 -0.0123705985 -0.008701943 -0.0033332712 -0.023559565
-0.009184361 -0.0029152168 0.018454047 -0.023605261 0.0016603946 -0.012426333 -0.026228772 0.015365082
0.009115053 0.0002998551 0.008235337 0.017105417 0.012568172 -7.101647e-05 -0.015576816 0.01617468
-0.0053225365 -0.014254043 -0.013115531 0.013600733 -0.024431879 0.0028404125 -0.021522691 0.002115671
-0.028322283 -0.021843389 -0.013182142 0.008199692 0.012248227 -0.0235668 0.0079769865 -0.015784869
-0.017701281 0.01843741 -0.012465938 0.014609295 0.0050084726 -0.0055386503 -0.026490116 0.014956987
-0.014153377 -0.019229969 0.02878898 0.030314932 -0.0068163355 -0.0010769529 -0.030285023 0.009891468
0.016763328 0.017915303 -0.00017026193 -0.00035920303 -0.007832079 -0.0031377492 -0.003260997 -0.01148781
0.0030201306 0.028319454 -0.023087556 0.008920917 0.017593002 0.0066332794 -0.0010506996 0.006985432
-0.00699214 0.013147059 0.00878436 0.0032030218 0.0076570623 -0.025900153 -0.012953178 0.017989103
0.0011750963 0.016328828 -0.018250022 0.0168795 -0.019502884 -0.014776725 -0.01935281 -0.0057232557
-0.007948394 0.013543876 0.020895915 -0.0063939523 0.02090999 0.0062800366 -0.0029836744 -0.0072592637
0.008049077 0.024383921 0.011757149 0.008604707 -0.006756593 -0.014812545 -0.030275 -0.01644436
0.0058060423 0.015239941 -0.024223218 0.015121547 -0.0129664205 0.015068106 -0.015963588 -0.014726581
0.008398113 -0.00801843 -0.029462287 -0.014130191 0.030439384 -0.019417234 0.023108708 -0.0058902903
0.024978105 0.027461953 0.010494204 -0.0302402 -0.023908451 0.016564852 -0.0046865195 0.024724672
-0.012653574 -0.0052647553 -0.0015116669 0.012012223 -0.0035929289 0.0047743823 -0.00092216954 -0.020811137
0.017094744 -0.019810492 -0.017094787 -0.0098346835 -0.010995003 0.011263068 0.021339228 -0.0076784585
0.015587525 -0.0020646788 0.0048609693 0.016864786 0.0011956367 0.020675564 -0.028288828 0.009113424
-0.009615625 0.01614997 -0.011193037 -0.012426233 0.0009917677 0.008029293 -0.0148862945 -0.009427171
-0.010896966 -0.016512487 0.013051933 0.009591018 -0.011885217 0.015202798 0.010079334 -0.019296542
0.016175425 0.014864173 0.01869137 -0.028050615 -0.021478744 -0.0010228251 -0.003638079 -0.016359204
0.021299437 -0.013821528 -0.016671149 -0.027907973 -0.008510097 0.014457968 -0.0039539263 -0.020234182
-0.00896102 0.020185724 -0.0029432867 0.0011593355 0.0038862613 -0.024118293 -0.030513525 0.030247645
0.017802741 -0.026062543 0.011968425 0.028491234 0.006096691 0.01671047 -0.017135551 -0.018630818
-0.010102017 0.012886512 0.025827214 -0.0037011725 -0.02035535 -0.026244376 0.012137604 -0.013507099
-0.028039696 0.026555222 -0.008168976 -0.0048727468 -0.007098776 0.015336028 -0.016434971 0.018817758
-0.023769828 -0.0099092275 -0.0057950043 -0.008891026 -0.004208495 -0.01351087 -0.002867194 0.0068966122
-0.028097957 -0.02024219 0.0013271626 0.0050571673 -0.008168582 -0.0148765175 0.002783671 0.007651492
0.030752815 0.015495557 0.0090816505 -0.020974401 -0.01747098 -0.021236852 -0.021063594 -0.014978384
-0.011362651 0.0009177452 0.008084085 -0.011188122 0.018560963 -0.0132275885 0.012831093 -0.030509846
0.021394225 -0.017932246 0.019797947 0.011450828 -0.021932513 0.010151579 0.009874972 0.008234044

fc.1.bias f4 [128]
00000000: d7f2 75bc d933 2dbc b500 ed3c d8dc a1bc
00000010: f78b 633c 88e8 553c f931 9abc ea4b b53b
00000020: c8f9 3abc 773c 1dbc afe9 f73c dc62 173d
00000030: 3a1c febc 76f3 263c 555b 28bc 5081 d4bb
00000040: dd13 023d 7eda f4bb 16b5 783d 0fdb 52bc
00000050: 495b 693c b1c4 91bd b8b0 02bd 9a2d 08bd
00000060: d951 b03c cda3 a83b 6faa 033d 4583 363d
00000070: 924c d13c af6c 6dbb cc1a 563b c108 89bc
00000080: e3f3 c8bc 7df1 b9bb 890a 563c 69f3 bc3c
00000090: 1c7e e93b 3fdf eabc 6c5a 183d 4aa3 4bbd
000000a0: f5b1 0d3d 82e5 6abb 7d1e be3a 2482 e53b
000000b0: 3500 cebc dff8 b8bc 8f49 c0bb e50a 4ebc
000000c0: 1eb4 d83c ef84 e5bc db6f 94bc 4956 e6bc
000000d0: ccae 823c 4a4e cbbb fc08 103c e958 63bd
000000e0: dac7 503d 770f 133d 770d a6bc 9c4a 22bb
000000f0: 1564 f73c d9a2 c2bb c742 113c d43a 643b
00000100: 85aa 03bd 6bfc 0e3d 14c6 39bb 8b3f edbb
00000110: 2d02 cfb9 92aa f23c e1e4 04bc f0cc cebc
00000120: fc5a 073d daf5 f7bc 3704 a43a 7d0c f83b
00000130: 990c 47bc fe28 19bc 6cd5 7dbc 4667 333c
00000140: 38e1 3b3c 9daa 653c 6b9b c7bc 41e8 2abc
00000150: 22f8 be3c 35e1 d5bb 9885 e8bc 5df9 993b
00000160: 16e5 63bc 0358 a0bc 7776 753c 85c0 8c3c
00000170: 26c4 b13c 5282 1dbd 1298 313c 744f 0dbd
00000180: d6fe a0bb 5882 a2bc 3e9f caba e706 d63c
00000190: 49c6 b9ba 509e f43c aaed d83c 6a51 12bd
000001a0: dbea 1c3c 9fd2 eebc 82e6 cf3c 7aa0 9f3c
000001b0: df60 873b d1b7 03bc 8094 d9ba e2f0 043d
000001c0: f5f7 b2bc a554 fc3c 0281 f1bc 04ef 0f3c
000001d0: 0fae 833a daa7 963c a99c ab3b 812e e5bc
000001e0: acc4 0cbd 5d03 95bc 20ea afbc 01a9 cc3b
000001f0: b707 1cbc 639d dbbc 30fe 4a3c ef41 163d
-0.015011511 -0.0105714435 0.028931001 -0.019758627 0.013888351 0.013055928 -0.018822657 0.0055327313
-0.011412092 -0.0095969355 0.030262796 0.036959514 -0.031019319 0.010189882 -0.0102756815 -0.006485142
0.031757224 -0.0074723354 0.060719572 -0.01286961 0.0142429555 -0.07117594 -0.031906813 -0.033246614
0.021523403 0.0051464797 0.03214496 0.044558782 0.025549207 -0.003622811 0.003266978 -0.016727807
-0.024530357 -0.0056745396 0.013064035 0.023065286 0.007125629 -0.028670905 0.037195608 -0.04971627
0.03459354 -0.0035842364 0.0014504936 0.0070040394 -0.025146583 -0.022579608 -0.005868144 -0.01257584
0.026453074 -0.02801749 -0.018119743 -0.028117316 0.01595249 -0.006204401 0.008791205 -0.055504713
0.050971843 0.03590342 -0.020270092 -0.002476371 0.03019909 -0.005939823 0.008866019 0.0034825103
-0.032145042 0.034908693 -0.0028346824 -0.007240241 -0.00039483738 0.02962235 -0.00811121 -0.025244206
0.033045754 -0.030268598 0.0012513463 0.007569848 -0.012149 -0.009348152 -0.015492778 0.010949915
0.011467271 0.014017728 -0.024366101 -0.01043135 0.023311678 -0.006527091 -0.028384015 0.004698916
-0.013909599 -0.019573217 0.0149818575 0.017181644 0.021699976 -0.03845436 0.010839479 -0.0344996
-0.0049131913 -0.019837543 -0.0015458835 0.026126338 -0.0014173473 0.029860646 0.026480515 -0.035722174
0.009577478 -0.029153166 0.02537847 0.0194857 0.004131421 -0.008039431 -0.0016600043 0.032456286
-0.02184675 0.03080208 -0.029480461 0.008785013 0.001004638 0.018390585 0.005237181 -0.027976276
-0.03436725 -0.01819008 -0.021473944 0.006245733 -0.009523324 -0.026808446 0.012389705 0.036683973

fc.3.weight f4 [10, 128]
00000000: b17a a0bc a12a 83bc ed3a 1abe 3ffd 3f3d
00000010: 9d59 9d3c ba33 263d d889 833b f8db 43be
00000020: bf43 57bd 0e65 2c3c a504 e13b 1b6f fc3d
00000030: 7f4d 12be db89 903d 2fe5 a4bd a30e ef3d
00000040: 1d2e b2bd 056f 983d a16c ca3b 18fd 77bd
00000050: 555a 4b3d dd1e b8bc 87b9 033d 83ee 7bbe
00000060: 03db 993d 990a 8dbd ca02 1b3e 0cab 613d
00000070: 5eca 573c 310e 393c 84f8 0fbe d409 b43d
00000080: da1d 243d 6c72 98bd ea29 bd3d c544 793d
00000090: a218 b5bd e6d4 10bd 1134 153d a578 183d
000000a0: 568e e33d 993e 943d 7c15 0cbd 365b 3abd
000000b0: 6db1 283d 9114 86bd d3ec a33d a2fd bfbd
000000c0: 49ac c33c cd78 33be aa68 bebd 13cf 14bd
000000d0: 4c05 b5bc fe3d dcbd 1272 cd3d 6a46 b8bd
000000e0: 67f5 033e a276 76bd c81e 9d3d b2d8 a1bd
000000f0: 40f9 0c3e 15fc 68bd b9f3 0c3d 5bfc 5cbc
00000100: 0afc bdbd 2c24 173e 6264 af3d 9176 91bd
00000110: c0fb 41bd 87b5 5fbe 8663 4b3d d6e5 4b3d
00000120: 9fdb d0bd 65aa 733d 6026 703c f4b2 1cbd
00000130: 2c3a 433c 2dd6 833d dbc7 77bc e837 31ba
00000140: 2034 34bd 538d 933c 571a 18bd 4dfc 64bc
00000150: bdfb 8738 07b0 8cbd a114 26bd d6fe 853c
00000160: 37e5 613c 7342 84bd 3f30 ef3c 34b6 4abd
00000170: 30d2 dc3d 2eca 02be 6c3d c5bc 6894 43be
00000180: 5e86 a53d a4a2 3dbc e4ff 9dbd 17ad 0e3d
00000190: 2f45 653d 5087 1abe 4842 62be d4fb 30bd
000001a0: b355 3a3c e0dc 733d fab0 1fbe 745c 9c3d
000001b0: 9f99 ae3d 9f00 2dbd dfd5 a5bd de5a 2a3d
000001c0: 6d7e 443d 03cd d83d 4115 dabb 9b79 ec3c
000001d0: b3f0 32be 2636 b43d a400 73be ad1d 403b
000001e0: d138 81bd a51c 2abd d62e 113d decd 3ebd
000001f0: 50d6 2bbe a4ba b1bd 51a0 7fbd 972a d53d
00000200: 7d65 1abd 5787 b03c b6d2 d03c a3b2 8f3c
00000210: 6e08 8ebd 0964 303a b3c0 cbbc 4c22 013d
00000220: 1685 13be 17f6 75bd 4561 cb3d 3089 83bd
00000230: 4c24 25be 7131 9f3d c576 0d3c d9a6 1abd
00000240: 6bf4 043d 99ee 973c 4da7 de3d 87e3 8b3d
00000250: d4ad ab3c 6daa b9bd 9133 c63d 511e d0bd
00000260: d4ba 1c3e 7087 91bd 5c39 8ebd e57b cf3d
00000270: 1144 10be 5370 a1bc 1b69 b53d fb4d acbd
00000280: fd1d edbc a534 b9bd 04d9 013e 93ab d4bd
00000290: f7e6 b7bc 8102 2ebc 8ca9 803d 21a4 6f3d
000002a0: dbfb 8d3d fa56 edbd 84af bfbd abcf cc3d
000002b0: 7aa3 b23c 2dca d53c f4c1 0d3d d0d1 36bd
000002c0: 8f2e 8e3b 4b45 65bc 02b8 ae3c f55c 8e3d
000002d0: 5431 1dbc 892f 233d fc7d 25be ebd0 cf39
000002e0: 6061 62bd 8133 363d e0dc 14bc 48c7 04bc
000002f0: ea3a f63c 86b1 81bd d9db b4bc 17f7 8cbd
00000300: 2741 26be 719f 823e b1a3 91bd 0d1f 5cbd
00000310: 610c 003c b937 b33d 3835 3e3d f80a 0ebe
00000320: b298 943d 784a 513d 0e14 593d 250a a33d
00000330: 4cc1 e4bd 1c81 6cbd 91cd 09bd 22d2 f93d
00000340: f8f4 8ebd c72c 16bd 14ef 96bd 1806 50bd
00000350: b9b3 9ebd 934e e33d bb82 2dbd bd86 103d
00000360: 212f 4f3d 9530 753c 9b80 3c3c aedb 71bc
00000370: 1c94 9a3d dc86 b5bd e5e2 5b3d c6cf eabd
00000380: 70b2 56be 48e8 52bd e795 f33c af07 05be
00000390: ccd2 473d 3ee7 aa3d cd8b a13a e841 ff3d
000003a0: d18d e23c 9bef a1bc 9e6b 9f3b 28c7 febd
000003b0: f821 11be 64ea 7dbe 6ed9 52bd 7283 44bd
000003c0: e2e8 8f3c 8751 f53d 4830 573d 0231 87bd
000003d0: 3e1f 923d ef16 cfbd 9b3f f13d 02d3 c4bd
000003e0: 992b 2c3e bd68 fb3c 877a 8b3d 794f d3bb
000003f0: d877 23be 0387 cf3d c813 483d 4bc4 6b3b
-0.019589754 -0.016011538 -0.15061541 0.046872374 0.01920777 0.040576674 0.004014235 -0.1912688
-0.052554842 0.01052214 0.0068670087 0.12325879 -0.14287375 0.07057544 -0.08051526 0.116727136
-0.08700202 0.0744305 0.0061775004 -0.060544103 0.049646694 -0.022475654 0.032159355 -0.24602704
0.07512476 -0.06886787 0.15137783 0.055094764 0.013170807 0.011294887 -0.14059645 0.08790937
0.04006753 -0.07443699 0.0923651 0.0608566 -0.08842589 -0.035359286 0.036426608 0.03722443
0.11111133 0.07238502 -0.034200177 -0.04549714 0.04118483 -0.065468915 0.08004155 -0.093745485
0.023885863 -0.1752655 -0.09297307 -0.036330294 -0.022097252 -0.107540116 0.10031523 -0.089978054
0.12886582 -0.06017173 0.07671887 -0.079026595 0.13766956 -0.05688103 0.03441212 -0.013487901
-0.09276588 0.14759892 0.085640684 -0.07102693 -0.047359228 -0.21846591 0.04965546 0.049779736
-0.101981394 0.059488673 0.014657587 -0.0382566 0.011915725 0.06437335 -0.015123333 -0.0006760345
-0.043995023 0.018011725 -0.037134495 -0.013976169 6.4841915e-05 -0.06869512 -0.040547017 0.016356867
0.013787559 -0.06457987 0.02919781 -0.04949017 0.107822776 -0.12772438 -0.02407714 -0.19099581
0.08082269 -0.011574421 -0.07714823 0.03483304 0.05597418 -0.1509068 -0.22095597 -0.043208912
0.011372971 0.059536815 -0.15594855 0.076348215 0.08525395 -0.04223692 -0.08097433 0.041590564
0.04797213 0.10585978 -0.0066553657 0.02886658 -0.17474632 0.087993905 -0.23730713 0.0029314563
-0.06309665 -0.041531224 0.035445057 -0.04658305 -0.16780972 -0.08678177 -0.06240875 0.10408514
-0.037694443 0.02154891 0.0254911 0.017541235 -0.069352016 0.00067287736 -0.02487216 0.03152685
-0.14406237 -0.060049143 0.09930662 -0.06422651 -0.16127127 0.07773102 0.008634274 -0.037756775
0.032459658 0.01854639 0.10871754 0.06830507 0.020956911 -0.09065709 0.09677804 -0.101620324
0.15305644 -0.07105911 -0.06944534 0.10131053 -0.14088465 -0.01970688 0.08857938 -0.08413311
-0.028944964 -0.09043244 0.12680441 -0.10384288 -0.022449 -0.010620714 0.062823385 0.058506135
0.06932803 -0.11588855 -0.09359649 0.10000547 0.021806467 0.026097381 0.034608796 -0.044633687
0.0043390463 -0.0139935715 0.021327976 0.06951324 -0.00959428 0.039840255 -0.1616134 0.00039637773
-0.055268645 0.04448271 -0.009085864 -0.008104153 0.03005739 -0.06332688 -0.022077488 -0.06883066
-0.16235791 0.2551227 -0.071113 -0.05374055 0.007815451 0.08750863 0.046437472 -0.13871372
0.07255687 0.05109641 0.05299764 0.07960919 -0.11169681 -0.057740316 -0.03364331 0.12198283
-0.06980318 -0.036663797 -0.07369819 -0.05078706 -0.07749123 0.11098971 -0.042361002 0.035284746
0.050582055 0.014965196 0.011505271 -0.014761848 0.07547781 -0.08863613 0.05368318 -0.11465411
-0.20966506 -0.051491052 0.029734565 -0.12991212 0.048785016 0.08344887 0.0012324989 0.124637425
0.027655514 -0.019767573 0.004865124 -0.1244033 -0.14173114 -0.24796444 -0.05147689 -0.04797692
0.017567102 0.11978441 0.05253628 -0.066011444 0.07134865 -0.10111796 0.1177971 -0.09610559
0.16813506 0.030689592 0.068104796 -0.006448683 -0.15963686 0.10133173 0.04884699 0.0035975154

fc.3.bias f4 [10]
00000000: 3ce1 2c3c c169 f63d fe9b a2bd ffc2 9f3d
00000010: 1dbe 71bd 9513 05bb 0c25 88bc 6cb7 253d
00000020: 1cf8 c03d 0275 b0bc
0.010551747 0.1203189 -0.079399094 0.078008644 -0.059019197 -0.0020305861 -0.016619228 0.040458128
0.09422323 -0.021540169
