mnist_model.pth (torch, 90885 bytes, 8 tensors)

conv1.weight f4 [10, 1, 5, 5]
00000000: 7cbe bcbd 9450 8ebb bf2b bebe d709 fcbe
00000010: 47b7 efbe aec9 63be ca40 5cbe c8e3 abbe
00000020: e007 aebe 2be5 47be eee6 8abe f50e c0be
00000030: d485 aabe 9d04 16be fe91 743e 1879 0cbf
00000040: 4cab 9ebe 6c67 d33a 06e6 9f3e a9af 0d3f
00000050: ff86 b0be 868c 43bd 45f4 043e 6ecc 9c3e
00000060: 916b 0e3f def2 3e3e 9e75 0ebe 1dd0 ed3d
00000070: 1db1 193d e9da 32be 8dad bebd 1d22 033e
00000080: 0d21 87bd da0f 36be 41c1 353e 823a 363e
00000090: 3395 073e 3528 46be 84d3 e7bd 92fc 6dbd
000000a0: 5ded 383e daf0 18be b152 4bbe 8d4e b03c
000000b0: e793 36be 63a9 3bbe 8fff 34be 58c5 fabd
000000c0: 4a39 d0bd 4b78 f23c 273e 3cbd 6daf 8fbe
000000d0: 0bb4 82be e6e5 433e b998 f43d adcf b0be
000000e0: 43ce b1be d518 9abe 326f 6e3e 99e9 a23e
000000f0: 1f0f ecbe eda4 99be a30d 2abb bde0 e93e
00000100: 57c8 a73e fcac 03bf 0d34 3dbe 8185 d03d
00000110: 8c1f d63e fc86 243e 61ab 8dbe 5e2a 4fbd
00000120: 6371 b53d 4a70 f33e c6c6 083e c3b1 ec3d
00000130: 9e44 33be 17df 623d ed3f 8fbe 8e7a 9bbe
00000140: 18d3 df3d 6c2e c03e 4063 1a3f e73a e93e
00000150: fa45 43be a5d8 b5bd 901c b1bd 9119 cf3e
00000160: 9971 f33e 7811 363d 2764 cdbe c6fa aabe
00000170: 4b54 e4bd 30c5 5c3e 8344 0c3e 0c4b e0be
00000180: 7573 c3be 99d6 cebe 8f02 73be ad13 9b3d
00000190: b0ea fabe 5e39 e6bd e7d6 c93d d6ed 163e
000001a0: bfbd 293c f79e e83c be69 a43d b602 ab3e
000001b0: 9054 3d3e 216f 523e d464 d53e cf65 083f
000001c0: 96b9 913e 0487 d43c f1d0 9cbe 627f 813e
000001d0: 0a87 2c3e f87b 7bbe 2466 53be 14b5 2ebe
000001e0: c241 86be 71d2 11bf 4b87 14bf 8421 8ebe
000001f0: 97ef bfbc dce4 cfbd 2031 a0bc d91c ff3d
00000200: c94c d03d 46ba f2bd 1b4c 97be 9b8b 65be
00000210: dc3b 30bd b00b 9b3d 12c3 7a3e 405c 94be
00000220: 0ab4 9abd adf3 6dbe 3ab9 903e e85e 253e
00000230: 4870 6ebe 75bc eebd 77bb 01be 1102 533e
00000240: 41ca 1c3d 21d5 95bd 77f0 7bbe 1c59 acbe
00000250: a1f9 91bc b700 b23e dead 71be 9591 9bbd
00000260: d022 d6bd 2bb7 c9bd 51f5 983c ae94 2b3e
00000270: 45e6 ccbe 64ca b5be 7e8f e3be 006b 9bbe
00000280: 66e1 493e bb9f f33d 6cb6 7bbe 52d2 95be
00000290: 451f 52be f6e0 5f3e 3ab7 ab3e 2e31 bf3c
000002a0: 288e d53d 797a 2a3d bc88 36be 7abe c53e
000002b0: 89c5 d03e f0cc f23e 7340 ce3e 8fc9 563e
000002c0: 37ec a63e fd9c 863e f065 a33e 088c 073e
000002d0: 59b5 553e 410e 0bbe bc69 a03d c9a9 653e
000002e0: 1895 353d f8b6 9dbe fd05 683d 022a b2bd
000002f0: 9ef5 b23c 03c9 343e 2da4 8ebe 8001 10be
00000300: 9433 8a3c 18e1 09bd a8b9 56bc 4171 d3be
00000310: 1008 25be cf1c 73be b63f 94bd 1ff3 06bd
00000320: 14fa cd3d 7b59 fc3e 5b6d f33b f3f7 89be
00000330: 9d31 e5be c913 c23d 11fc f63e 2e8c b6bb
00000340: f26f 9fbe c363 ebbe 99b7 da3e 8830 993e
00000350: 4ab4 0bbe 3cf8 c6be f209 d4be 1a2a 833e
00000360: 98bf 3a3e b90d b03b 5ff3 83be aeb4 2ebe
00000370: 68aa 2a3d c39c 733d 3abb cdbd 3c5c 1dbe
00000380: 9af1 2dbe e372 703e cd8d af3b 8dbe 12bd
00000390: c044 d9be 4498 13bf 707c 2bbe 04c9 65be
000003a0: eeb9 243d ef01 10be 550f 9bbd 54ca 213e
000003b0: 12b4 a13d 9ad3 b03e 926a d33e f7c5 a83e
000003c0: 8a32 32bd dd33 9abd 8549 7c3e f7f8 9b3d
000003d0: 6a74 53be 3534 0a3e 3cc7 d73d 9893 0abe
000003e0: 4a3a cb3d f5b9 24bc
-0.092160195 -0.0043431018 -0.3714275 -0.49226257 -0.46819517 -0.22244903 -0.2150909 -0.3357222
-0.33990383 -0.19521014 -0.2712931 -0.3751141 -0.33305228 -0.14650197 0.23883817 -0.54872274
-0.30990064 0.0016128845 0.3123018 0.5534616 -0.34477994 -0.047741435 0.12983806 0.30624717
0.55632883 0.18647334 -0.13912055 0.1161196 0.037522424 -0.1746632 -0.09310446 0.12805982
-0.06598101 -0.17779484 0.17749502 0.17795756 0.13240509 -0.19351275 -0.1131964 -0.058102198
0.18059297 -0.14935628 -0.19855763 0.02152183 -0.17829858 -0.18326335 -0.17675613 -0.122446716
-0.10167177 0.029598376 -0.04595771 -0.28063527 -0.25527987 0.19130668 0.11943192 -0.34533444
-0.34727678 -0.3009707 0.23284605 0.31818846 -0.46105286 -0.3000864 -0.002594807 0.45679274
0.32770035 -0.5143583 -0.18476887 0.10181714 0.41820943 0.16067117 -0.27669814 -0.050577514
0.088595174 0.47546607 0.13357076 0.11557343 -0.17506644 0.055388536 -0.2797846 -0.3036694
0.10928935 0.37535417 0.60307693 0.4555275 -0.19069663 -0.08879212 -0.08648026 0.40449193
0.47547606 0.044450253 -0.40115473 -0.3339445 -0.1114889 0.21559596 0.1369801 -0.43807256
-0.38174024 -0.403981 -0.23731445 0.07572112 -0.49007177 -0.11241411 0.098554425 0.14739165
0.01036018 0.028396113 0.08027981 0.33400506 0.1848929 0.20550205 0.41678488 0.5328035
0.28461903 0.025943287 -0.3062816 0.25292498 0.16848388 -0.24559009 -0.20644432 -0.17061263
-0.26222044 -0.56961733 -0.5801894 -0.27759945 -0.023429675 -0.10151073 -0.019554675 0.12456674
0.101708956 -0.11851935 -0.2955025 -0.22416537 -0.043025836 0.075705886 0.24488476 -0.2897663
-0.07553871 -0.23237486 0.28266317 0.16149485 -0.2328502 -0.11657039 -0.12669168 0.20606257
0.03827882 -0.07316042 -0.24603449 -0.33661735 -0.017819228 0.3476617 -0.23601481 -0.07596127
-0.10455859 -0.0984939 0.018671663 0.16755936 -0.40019432 -0.35505974 -0.44445413 -0.30355072
0.19714889 0.118957005 -0.24581307 -0.29262024 -0.20519741 0.2186316 0.33538228 0.02333888
0.10427505 0.041620705 -0.17825598 0.38621885 0.40775707 0.4742198 0.40283546 0.20975326
0.32602093 0.26291648 0.3191371 0.13237011 0.2086996 -0.13579656 0.07832667 0.22428049
0.04433164 -0.30803657 0.056646336 -0.086994186 0.021845635 0.17654805 -0.2785963 -0.14063072
0.016870297 -0.03366193 -0.013105787 -0.41297343 -0.16116357 -0.23741458 -0.072387144 -0.032946702
0.10057464 0.49287018 0.0074288077 -0.26946983 -0.44764414 0.0947643 0.48239186 -0.00557091
-0.31140095 -0.4597455 0.427182 0.2991984 -0.13642994 -0.38861263 -0.41413838 0.25618058
0.1823715 0.0053727296 -0.25771615 -0.17061111 0.04166642 0.05947567 -0.10045476 -0.15367216
-0.16986695 0.23481326 0.00535748 -0.035826255 -0.42435265 -0.57654214 -0.16746688 -0.22439963
0.04021638 -0.14063238 -0.07571284 0.15799838 0.07895674 0.3453644 0.41292244 0.32963535
-0.04350523 -0.075294234 0.2463742 0.07615846 -0.20649877 0.13496478 0.10536048 -0.13532865
0.09923227 -0.010054101

conv1.bias f4 [10]
00000000: 4cee efba ecfd d7bd 42f9 bbbe 9cb0 04be
00000010: 8631 bfbc 780b f43a 00a1 dabd f860 9ebc
00000020: a22e 49be efea f4bd
-0.0018305271 -0.10546479 -0.36713606 -0.12957996 -0.023339044 0.0018619141 -0.106752396 -0.019333348
-0.19646695 -0.119588725

conv2.weight f4 [20, 10, 5, 5]
00000000: 349c e4bc 4035 ed3d a0c2 cb3d 40f2 3cbc
00000010: d92a 5abc 6a79 ffbc e0cc 57bc c5e8 f53d
00000020: d0ad 1e3e 8d6b 5c3e af0e a23d b4bc f53b
00000030: 9966 543d a3b7 233e 2b0e db3d 7ee7 15bc
00000040: 170c c93c 2441 de3c e6a8 333e 3dca 09bd
00000050: 18ad ebbd 4678 eebd 04a9 9abd ced6 a6bc
00000060: 92f3 d6bd d40f 9f3b 9271 bd3c 9e7d 033d
00000070: 8a57 803d 0eee aabb 9392 8a3c 80ad 3ebd
00000080: 135d 373d b8b3 2ebd 323f 673d a6dc 81bc
00000090: 5ea0 1bbc c93a 2dbd 5b9d 063d c2fc fa3c
000000a0: 988d c0bb 93a2 353d 1513 28bd ce9f 10bc
000000b0: f967 2bbc 2d99 1abd 85f6 80bb 35b1 403c
000000c0: b0eb 81bd cdbb 203d 006d 053d 7b1d 4b3e
000000d0: 71cf f43d 6e06 28bd d3f1 75bd bc3c b93c
000000e0: c52f a73d c686 0e3e 1534 2d3d 0772 0c3e
000000f0: 8604 d33c b45e df3d 5da9 cb3d a46f e53d
00000100: 1035 833d fd4a e8bc 84b0 393d 85fa 233e
00000110: c3cc 133e 56b4 52bc 5d96 bc3b 97c2 083d
00000120: f2fd d43d 1c71 303e f16b cebd 445f 4e3d
00000130: a17f f9bb d74a 11be 1c07 52be 8d0e 56be
00000140: bf3c 093e 89ba 49bd 3c0c 3bbe 1013 ffbd
00000150: 8150 3cbe b27c 3abd a0f0 dcbd 5f28 19be
00000160: f9a2 17be b716 72be 62aa 88bd 8397 efbd
00000170: 0f83 c3bd a238 00bc 4ce8 85be b04d e5bd
00000180: ee82 56be b948 47bb 5e0d 0c3e e5d7 b13c
00000190: 7c2d e93c 1d2d aabd e47c abbc 046e 31bd
000001a0: 18b3 87bd 084c c5bd 3432 afbd dbe6 d4bd
000001b0: 978b 3fbe 70c7 aa3a 5077 a7bc b2a6 55bb
000001c0: 97c9 c6bd fc7f 96bd 405e c63d 40e9 a63d
000001d0: 59dc 5abd 3c92 49be 03cf 18be 9a8e 99bd
000001e0: ee2b 483d d1c7 2fbe 83f9 31be 7be6 5dbe
000001f0: aa27 1dbe c081 0f3d 1af1 843d 548d ab3d
00000200: 9660 98bd 5071 aebd 591b af3d cb7d 5b3d
00000210: e535 783d 1ee5 e6bd 37cb 8abd 606c c13d
00000220: 6916 903d aa37 08bc f506 e0bc b0f4 0bbc
00000230: 3e76 7abd d34e d93d e5c9 8e3d 7a86 723c
00000240: 513c 1bbd 9f5b dbbd 5ca1 6b3d 0504 933b
00000250: 95ac 1e3e 3760 b63c 8ef5 2fbe 5548 f1bd
00000260: bb4d 9dbd def5 b8bd 9d33 05be 0aad 4bbd
00000270: 6574 1bbe 2017 8dbd 10ec 7cbd 9d3a be3c
00000280: 9dc9 8f3d 88c0 15bd 09ac efbd 3353 afbd
00000290: 99ca 21be f3a2 93bc 5a2a 15be 2da1 01be
000002a0: 698f 13be f2bc 31be ef5e 073d 4204 22bd
000002b0: f293 12bd b764 b5bd e5b6 be3d a1eb 823d
000002c0: 9575 db3c 7ddc f7bc 70bf 82bc 251b 11bd
000002d0: 2513 aebc 0e50 9dbc da03 05be 642b 39be
000002e0: 8ee8 1fbe c460 ad38 acb6 94bd e30f 65bd
000002f0: 8fd5 8ebd 7fd7 00be bd3c 30bd b656 03be
00000300: 67c4 72bd 223d cdbd c6a0 92bd 30d6 32bb
00000310: 0e09 f6bd 383c 18bd e13e 543b 0344 c7bd
00000320: e143 3a3e 0053 f53d 001c 733d 9f26 973d
00000330: 6f00 6c3d c236 363e 71e7 573d acbe 793d
00000340: 54d9 473d 4fa8 3e3d 8615 ad3d 84a8 ed3d
00000350: 0bae d73d 9a3f 463c 4eca 5b3d 0334 073e
00000360: e355 a53d 43eb 73bd fbf1 a93d 355a 283e
00000370: 88e8 353d e1d0 953c e4dd 0a3d 5a4a 2a3e
00000380: 9594 713e 9bed 01be 72c6 e9bd ad8f b0bd
00000390: ebc9 c6bd 4d53 29be 018e 10bd b0ec e6bd
000003a0: d1ea dcbd 7ee4 84bc f20c 173d 9516 35bb
000003b0: be7b 59bd 053b 3ebd d53f 3f3d 5fab 363d
000003c0: 4ed0 853d b487 f4bd 14cd 5dbd 7ed4 eabc
000003d0: df29 f2bd 20a5 16bd f98e b0bd 65c8 60bd
000003e0: b647 863d 4206 ddbc 558e 013e 124f 29bd
000003f0: 1e32 1bbd 5916 91bd 5e17 29bd 1326 eb3d
-0.027906515 0.11582422 0.09949231 -0.011532366 -0.01331588 -0.031185824 -0.013171405 0.12007288
0.15495992 0.21525402 0.07912957 0.007499302 0.051855657 0.1598802 0.10696062 -0.00914943
0.024541898 0.02713067 0.17544898 -0.033640135 -0.115076244 -0.11644034 -0.075517684 -0.020366099
-0.10495676 0.004854182 0.023125444 0.03210222 0.06266697 -0.0052163666 0.016915595 -0.04655218
0.044766497 -0.042651862 0.056456752 -0.015852284 -0.009498684 -0.04229239 0.03286491 0.030638102
-0.0058762543 0.044344496 -0.041033823 -0.008827163 -0.010461801 -0.037743736 -0.0039356374 0.011760999
-0.06343782 0.0392416 0.032574654 0.19835465 0.11953629 -0.041021757 -0.060045075 0.022611968
0.08163408 0.139186 0.042285997 0.13715373 0.025758993 0.10906735 0.09944413 0.112029344
0.06406605 -0.02835607 0.045334354 0.16013534 0.14433579 -0.012860378 0.0057552294 0.0333887
0.10399999 0.17230648 -0.10079182 0.05038382 -0.0076140915 -0.14188705 -0.20510525 -0.20903988
0.13402079 -0.04925016 -0.18266386 -0.12454808 -0.18390085 -0.045529075 -0.10788083 -0.14956807
-0.14808263 -0.23641478 -0.06673123 -0.116988204 -0.09546482 -0.007826002 -0.2615379 -0.11196458
-0.20948383 -0.0030408336 0.13676974 0.021709392 0.028464071 -0.08309386 -0.020933576 -0.04331781
-0.06625956 -0.096336424 -0.08554497 -0.10395595 -0.18705593 0.0013029408 -0.020442635 -0.003260058
-0.09706419 -0.0734863 0.096859455 0.08149958 -0.053432796 -0.1968469 -0.14922719 -0.07497902
0.04887002 -0.17166068 -0.17380337 -0.21669953 -0.15347162 0.03503585 0.06491299 0.083765656
-0.07440297 -0.085177064 0.08550138 0.053586762 0.060598273 -0.112741694 -0.067770414 0.09444499
0.070355244 -0.008314053 -0.027347067 -0.008542225 -0.06114792 0.10610738 0.06972102 0.0148025695
-0.03789932 -0.10710835 0.05752693 0.004486563 0.15495522 0.022262676 -0.17183515 -0.11781374
-0.076808415 -0.090312704 -0.1300797 -0.04972557 -0.1518112 -0.06889176 -0.061748564 0.023221308
0.070208766 -0.036560565 -0.11702735 -0.08560791 -0.15799941 -0.018022036 -0.14566937 -0.1265914
-0.14410175 -0.17357233 0.03304952 -0.03955484 -0.035785623 -0.088571005 0.09312228 0.06392599
0.026789466 -0.030256504 -0.015960425 -0.035426278 -0.021249363 -0.019203212 -0.1298975 -0.18082958
-0.15616056 8.267307e-05 -0.072614044 -0.055923354 -0.06974327 -0.12582205 -0.043026675 -0.12826046
-0.059269335 -0.10021426 -0.07159571 -0.002728831 -0.12013446 -0.037166804 0.0032386112 -0.09729769
0.18189956 0.119787216 0.059352875 0.07380413 0.0576176 0.17794326 0.052710954 0.060972854
0.048791245 0.04654723 0.08451371 0.116044074 0.10531243 0.012100125 0.05365973 0.13203435
0.08073022 -0.059550535 0.08298107 0.16440661 0.044411212 0.018288078 0.033903018 0.16629925
0.23591836 -0.12688296 -0.114148036 -0.08621154 -0.097064815 -0.16535683 -0.035291675 -0.11275613
-0.10786975 -0.016222235 0.03687758 -0.0027631868 -0.053096525 -0.046443004 0.046691734 0.044597026
0.065338716 -0.11939946 -0.054150656 -0.028665777 -0.118243925 -0.03677857 -0.0862102 -0.05487861
0.065566465 -0.026980523 0.12651952 -0.041335173 -0.037889592 -0.070843406 -0.04128205 0.114818715

conv2.bias f4 [20]
00000000: e83a 80bc 90ed 143c 5327 7b3d 2a2e 02be
00000010: da65 643c dd32 c43c 2b14 323c 5835 61bd
00000020: da15 253e 502a 91bd 1008 87bd a362 36bd
00000030: 365e 3cbd 18e2 60be 16dc 0cbe 0550 f9bc
00000040: 27cc f63c 2925 fbbc 30fd d93b a5db a3bd
-0.015653089 0.009089842 0.0613168 -0.12712923 0.013940299 0.023950035 0.010869066 -0.054982513
0.16121617 -0.070881486 -0.06593335 -0.04452766 -0.045988284 -0.21961248 -0.13755831 -0.030433664
0.030126644 -0.030657368 0.0066524968 -0.08000878

fc1.weight f4 [50, 320]
00000000: 0e4b a1bc d0bd 0d3e 4e07 573e 7ac5 bb3d
00000010: e9ef 02be 6324 04be f5cd 39bd ae37 7abd
00000020: e90e f33c 305e 063c 8df8 a53c 3082 f5bd
00000030: 1f1e ac3d 0c4d a13d aa43 00bc 075a 603d
00000040: adb9 d6bd f11f a53d 0fb4 113d fcae c63d
00000050: 59c1 a0bd 8acc 01bd 6b5e 5cbd 04b2 41bc
00000060: 14d8 2f3d 83a0 053d 71ab bdbc 29cc 753c
00000070: 0f55 2b3b af85 803d b50d 26bb 5380 1a3d
00000080: f4a3 5fbc a69c 4a3d 9e31 b2bd 063c 1dbe
00000090: ad44 63bb cb57 0f3d 9f9a d0bc 65ba 2bbd
000000a0: 67d7 0cbd e0c4 cbbd 994d 92bd f1d2 fa3d
000000b0: 78a7 acbd 317a 07be 9473 aa3d 48d2 913d
000000c0: 48c7 f73d 4db3 a23c 72ed e33b e6e5 c53b
000000d0: 498d aa3d d506 893d 0188 9c3d c6d3 a7bd
000000e0: 4839 80bc 3e41 0cbd e056 8a3d 37df 6b3d
000000f0: 612c f0bd 80c7 52be e1ef d4bd 62db 8fbd
00000100: 4718 ecbc 69e5 96bc c892 cebd 8a81 5bbc
00000110: af71 943c 360a e9bc 1b63 a0bd 605f ec3d
00000120: 1e91 01bd bf5a 0fbe 8e29 d1bd e0ac c53d
00000130: 8b63 f0bc fb28 ccbd 664d 013e ef81 fa3d
00000140: 4a3d cb3d ff2c 4abc 1258 a4bd f18c a5bd
00000150: df50 e53d e70f 4e3b bb71 6dbd 5642 d5bc
00000160: fada 513d 3efa 22bd 0e1c 633d 7a5f 9b3d
00000170: 7f35 8ebd b86b 22bd 1d57 e6bd e5e3 b3bd
00000180: 2a8c b33d 66eb da3b ad65 66bd 561d eebd
00000190: d523 4a3e eb52 38bd c0b8 ec3d e168 09be
000001a0: 6fa5 543e 1a9c 28be b5a4 8bbd 331e 7c3d
000001b0: 7de3 393d 55a3 20be fa0a 62be 29eb cbbd
000001c0: 3c6b 8c3d 9466 ec3c 7714 e03d 916c 023e
000001d0: 760c 39bd 1812 4fbd 725d b7bd 4b35 373c
000001e0: d68b f5bc aaba 5b3d 739b 803b a05c 31bd
000001f0: df9f 323e 7ce7 25bd 818b 3f3c 5fa9 c7bc
00000200: 1279 6abd 5201 0a3d 94af ec3c f77d 38bd
00000210: 8173 4cbd a2d0 90bd 0458 17bc e69a 043e
00000220: e45f b83d 7257 9bba 0f0e d9bd 504f 523d
00000230: 10b0 0f3e bcaf 9dbd 386e c0bd 06ed 3e3d
00000240: 6c78 f03d 944d c63d b75b 693d 8987 4a3e
00000250: 574f 0dbc 75c0 c9b8 e940 89bd 4ac7 103e
00000260: 72f4 123c 0319 5abc 67d4 623d da62 7fbc
00000270: 85b3 ec3d ecc3 a0bc d8e9 413d 5b6d 0e3d
00000280: 966b ce3d f8c4 fc3d 90c0 53bd 9cc5 05bd
00000290: 3900 c53d e4e4 93bd f687 a63b c9d3 0f3d
000002a0: 5a2b 903d cdaa 2e3d d81c 06be 5c12 abbc
000002b0: b997 853c 5ed1 b53d bf60 a33d 08de 8f3d
000002c0: 8282 273e 8859 0fbd 5429 2ebc ec37 64bd
000002d0: 21b7 b23d 9240 b23a d664 afbc b864 fd3c
000002e0: 4f84 943d 6ea6 cbbc 77fb 33be 3a0c 073c
000002f0: ac6e 3ebd fef4 39bc 16dc ebbc 8f74 a5bc
00000300: 75f8 b5bd c924 a7bd 096a f2bd f825 ee3d
00000310: d428 98bd 6e8b b2bd 3794 c3bc 94ee 9d3d
00000320: 3aa8 1e3e 3a7c 1cbd 72e5 83bd 4371 103e
00000330: dca5 6fbd 1ec1 66bd 49f7 29bd ee9b aebd
00000340: c698 d53d ce6b ddbc 1145 03bd 965e 433d
00000350: 1f5e dc3d 2435 b53d 655c 2e3d 6420 fbbd
00000360: 88bc 9fbc 1c7f 1bbd 85f1 f3bc 444e 8838
00000370: 3c51 36be 473a 3ebe 082d 04be 5517 6e3d
00000380: e28f 8cbc d3d9 aebc 1e41 9b3d 1d3e a23d
00000390: 6ea3 5f3d c5ed 02be 2ed5 0abc 7483 223e
000003a0: ac6e ba3c 2c72 dabd a6af 3ebc 7ec8 e83d
000003b0: 9dea cabd 5c9b ca3c d602 a53d 7d09 23bd
000003c0: e6e9 03be 7d21 02be ce25 1f3d f224 dbbb
000003d0: 69a7 06be ebe0 05bd b5dc 883d 1aea 89bd
000003e0: 2e4d 273e f080 ccbd 2167 0f3d b4a3 80bd
000003f0: 2919 ee3d 0bad d63c 684e c6bc 9d53 b1bd
-0.01968911 0.13841939 0.2099888 0.09168525 -0.12786831 -0.12904505 -0.04536243 -0.061088257
0.029670196 0.008201167 0.02026012 -0.11987722 0.08404183 0.07876024 -0.007828632 0.054773357
-0.104846336 0.08062733 0.035572108 0.09701344 -0.07849378 -0.031689204 -0.05380098 -0.011822227
0.042930678 0.03262378 -0.023153039 0.015002289 0.0026143228 0.06275498 -0.002533776 0.037720036
-0.013649929 0.049465798 -0.0870087 -0.15354928 -0.0034678385 0.034995835 -0.025464354 -0.041925807
-0.03438511 -0.0994966 -0.07143707 0.12247265 -0.0843038 -0.13230206 0.08322826 0.07120186
0.12098557 0.019860888 0.006955796 0.006039369 0.08327729 0.06690756 0.07643128 -0.081946895
-0.015652314 -0.034241907 0.06754851 0.05758592 -0.117272146 -0.20583916 -0.10397316 -0.07024266
-0.02882017 -0.018419938 -0.1008659 -0.013397584 0.018120615 -0.028447252 -0.07831403 0.11541629
-0.031632535 -0.1399946 -0.10213004 0.09652114 -0.02934434 -0.09968754 0.12627181 0.12231814
0.09923799 -0.0123398295 -0.080246106 -0.08083523 0.111970656 0.0031442584 -0.05796979 -0.026032608
0.051234223 -0.03978943 0.055446677 0.0758657 -0.06943797 -0.03965351 -0.11247084 -0.08783702
0.087669685 0.0066808937 -0.05624931 -0.11626689 0.19740231 -0.04500095 0.11558676 -0.13418914
0.20766233 -0.16465798 -0.06818525 0.061552238 0.045382965 -0.15687306 -0.220745 -0.099569626
0.06856391 0.028857507 0.10941403 0.12736727 -0.0451779 -0.050554365 -0.0895337 0.01118214
-0.029973906 0.053644814 0.003924781 -0.043301225 0.17443798 -0.040503964 0.011690975 -0.024372755
-0.057244368 0.033692665 0.028892316 -0.045042004 -0.04991484 -0.070710436 -0.009237293 0.12949714
0.09002665 -0.0011851622 -0.105983846 0.05134517 0.14032006 -0.07699534 -0.093960226 0.046612762
0.11741719 0.096827656 0.05697223 0.19778265 -0.008624873 -9.620275e-05 -0.06701834 0.14138523
0.008969413 -0.013311627 0.055378344 -0.015587533 0.11557678 -0.019624673 0.04734215 0.03477226
0.10079114 0.12342256 -0.051697314 -0.032659158 0.09619183 -0.07221392 0.005082126 0.035114083
0.07039519 0.042643357 -0.1309694 -0.020882778 0.016307699 0.08877824 0.07977437 0.07024771
0.16358379 -0.034997493 -0.010629971 -0.055717394 0.08726335 0.0013599566 -0.021410387 0.030931816
0.07251798 -0.024859633 -0.17576395 0.008242661 -0.046492264 -0.011349915 -0.028791469 -0.020197181
-0.0888528 -0.08161313 -0.11836631 0.11628336 -0.07429662 -0.08718 -0.023874385 0.07711521
0.15493861 -0.03820441 -0.064402476 0.14105706 -0.058507785 -0.056336515 -0.041495595 -0.08525835
0.1042953 -0.027028944 -0.03204829 0.047697626 0.1076014 0.088480264 0.042568583 -0.122620374
-0.019499078 -0.037963018 -0.029778251 6.4995635e-05 -0.17804426 -0.18576919 -0.12907803 0.05812772
-0.017158452 -0.021344101 0.075807795 0.079220034 0.054599218 -0.12786014 -0.008473678 0.15870458
0.02275785 -0.10666308 -0.011638558 0.11366366 -0.0990803 0.024732284 0.080571815 -0.03980397
-0.12882194 -0.12708087 0.038854413 -0.006687754 -0.131498 -0.0326852 0.066827215 -0.067341045
0.16338035 -0.099855304 0.03501046 -0.06281224 0.11625893 0.02620556 -0.024207309 -0.08658526

fc1.bias f4 [50]
00000000: a089 183e 926f 2f3e a577 da3d 7c77 023e
00000010: 9df7 b43d e4bb 9bbd 37c9 b53d 6a8e 843d
00000020: d356 3c3e 23b0 003e 1e82 9d3d 7f68 2eba
00000030: 5df2 3c3e 13c2 423d 3e53 c63c ea76 6d3e
00000040: 5349 063e 26ff 1f3e d562 52bc f59f 493e
00000050: 4c5b fc3d 40c9 0b3e e407 973d 4ae5 a5bc
00000060: 2118 873d ee4b 1c3d 5637 623d 8010 753d
00000070: 719e d03d 807f 5c3c ab12 5e3e 0ca8 df3d
00000080: d188 0c3e 6941 06bd 3e6e b0bb 9175 293e
00000090: fd85 1a3e 25eb 673e 0cf7 063e a501 2d3e
000000a0: b614 a43c d167 bb3c f6f9 13bd 38bb 983d
000000b0: b99d a9bc 4d57 e23d 672b a33d 21e7 053e
000000c0: d6fc 333e 63fb f73d
0.1489625 0.17132404 0.10667352 0.12740892 0.08836291 -0.07604197 0.08876269 0.06472476
0.18392496 0.12567191 0.076908335 -0.00066531444 0.18451829 0.047548365 0.024209615 0.23189893
0.13113908 0.15624675 -0.012840946 0.19689925 0.12322101 0.1365099 0.07374552 -0.020250935
0.06596399 0.03815835 0.055228554 0.05983019 0.1018647 0.013458133 0.21686809 0.10920724
0.13724066 -0.032777224 -0.0053842356 0.16548754 0.15090175 0.22648294 0.13180178 0.16895159
0.020029407 0.022876652 -0.036127053 0.07457584 -0.02070509 0.110518076 0.07967263 0.1307645
0.17576918 0.12108495

fc2.weight f4 [10, 50]
00000000: 2202 353a b549 88be 4c71 cd3c 6d11 9bbe
00000010: 1a3b 4f3e e938 34be 449e 94be 2a5e 983e
00000020: dfbb c63e a679 94be 2341 b1be 7a6a 983e
00000030: 23fa 2ebe 950e 41be 74ca 633e 9f16 26be
00000040: 6880 afbe c40b 93be 7340 2d3e 0ffd 443e
00000050: 17fa b33e 91b0 033c 4ccc 803e 795b 17be
00000060: e4ff c83e 682f 93be c915 9b3e b86a 6f3e
00000070: 7c99 46bd fe3d 923e 45dc 6fbe 9d05 7c3e
00000080: 4325 c13e 389b 3bbe f15a 8dbe b489 e7be
00000090: 2523 a6be 07e6 3abe c32e cc3e f8de b83e
000000a0: 91b8 b4bc e60f 783e 465b 88be 974a 8ebe
000000b0: 669f 39be a5c8 8d3e 624c 8dbe 641e b6be
000000c0: 93c1 7fbe e731 873e 8915 8a3e 650d 703e
000000d0: b6d5 bf3e add4 29be de92 25be 1c4e 68bd
000000e0: 1a82 943e 858e 23be 6041 aa3e 8e11 45be
000000f0: ad31 9d3e 05cb cbbe 57bb 9c3e 97c1 62be
00000100: be48 b5be 37f5 253f c5a9 a43e 9c93 503e
00000110: 07b5 373d 4acc b33e 49dc 8ebd 68b2 ba3e
00000120: ceae c0be dab9 78be cb59 71be 24b9 95be
00000130: 6124 aebe 1f7b 7fbe 9e28 07be 109d 36be
00000140: cede 993e cebe eabe c559 723d a0cc c3be
00000150: bfd0 6cbe 9881 f33d ac33 ae3e 6c7c a43e
00000160: 1a95 4ebe 1d3d 29be 32f9 7bbe e7b4 98be
00000170: 2d49 e3be e31b ba3e 002a 5bbe d6c4 a6bc
00000180: 0c7f a9be 0092 283e afb7 ab3e f105 02be
00000190: adfe b4bd 55f8 84be a50f 19be 5725 04be
000001a0: 64e5 8e3e 9a23 b23e 9866 84be 4046 823e
000001b0: 966e f8bd 9ef3 473e a16c 813e 5a04 a5be
000001c0: b8c4 9e3e 6c2d 7fbe 76fc 14be 00dd 66be
000001d0: d777 a03e a0b0 a33e ec8f 433d fcba 853e
000001e0: d1db 703e 7a4b a53d d8e3 81be 5e1c 933e
000001f0: e8fb afbd 5edd 753e a982 653e c6af a6bd
00000200: 7a2f a6bd 1193 893e 393e 60bd b0de 66be
00000210: 6a66 643e c105 aabe 94eb 263e 3373 e3be
00000220: 3b24 cfbe f4ca 55be f6aa aebd a692 ad3e
00000230: 97f7 e0bd a667 ccbd a649 cebe 5a43 ca3e
00000240: 8571 963e fcbc 633e 78a7 25be deba c3bd
00000250: eb0b b63e 7443 443e f270 60be 5b63 96be
00000260: ac2b 66be 04d1 13be f0ab 753e 1dcd 46be
00000270: f53d 43be ea71 7d3e a8f6 5bbe a56e 2dbe
00000280: 8eac 8e3e 45c9 80be b39d ad3d 8920 933e
00000290: b4bd 803e 26a1 3abe 63ec 8e3c e789 8d3e
000002a0: cc93 983e 49a0 a03e d1c0 78be 0f2d 51be
000002b0: 6ce5 6abe fb08 9a3e ccc7 7cbe 00a7 883e
000002c0: 7294 81be 1e35 3f3e b1a9 96be f988 94be
000002d0: 8170 d2be 4cc6 803e 29c4 0d3d 1d55 7a3d
000002e0: 77fb a73e e8ae 563e 31d6 863e bea9 abbd
000002f0: 8666 35be e88c 08be af44 83bd b4a3 54be
00000300: a78c a93e ee85 cb3e b591 8c3e bdd7 8b3e
00000310: c8d3 64be 8663 963e 5f33 8d3d 10e6 56be
00000320: 2b8d d43e e7dd 60be 18a5 9d3e 59de d53e
00000330: 86e8 c7bd 53b3 463d 1ad0 9d3e 1f6f aebe
00000340: 7f5d 96bd a231 433e 0564 4fbe dd91 86be
00000350: 7f0c 37be 4931 03be 5c42 bebe 5f1d 353c
00000360: 674c 1abe 4d7b 10be d8d8 8cbe b49c 87be
00000370: 8f8e 35be e789 a13e 95e4 76be 7de9 a23d
00000380: 0380 2abe fb79 a63e 6457 8b3e fb78 b0be
00000390: f383 ef3e d86d 2e3e 2849 943e eb08 ecbe
000003a0: 0457 51bd e798 17be b36c ae3e 623f 433e
000003b0: ce4f 8c3e 917b 943e ba7a 44be dd9e 5abe
000003c0: 02e6 c13e f013 c0be ff55 513e 7b3e f1bd
000003d0: 585b 9e3c 37d2 a1be 7c0a 793e 8c50 77be
000003e0: cf3b 46be 778a 8e3e 5cf9 94be ca20 8b3e
000003f0: 1386 11be c2b0 69be 65f3 56be 6112 03be
0.000690492 -0.26618734 0.025078438 -0.30286732 0.20237389 -0.17599835 -0.29026997 0.2975934
0.3881521 -0.2899906 -0.34620008 0.29768735 -0.17087607 -0.18853219 0.22245198 -0.16219567
-0.34277654 -0.28719914 0.16919117 0.19237159 0.3515174 0.008037702 0.25155866 -0.14780988
0.3925773 -0.28747106 0.30290058 0.23380554 -0.048486218 0.2856292 -0.2342387 0.24611516
0.3772374 -0.1832093 -0.27608445 -0.45222247 -0.32448688 -0.18251811 0.39879426 0.36107612
-0.022060664 0.24224815 -0.26632136 -0.27791283 -0.18127212 0.27692142 -0.27597338 -0.3557006
-0.24976186 0.2640526 0.26969555 0.2344261 0.37467736 -0.16585036 -0.16169307 -0.056715116
0.2900551 -0.15972336 0.33253002 -0.19244978 0.30701962 -0.3980333 0.3061168 -0.22144161
-0.3540706 0.64827293 0.32160774 0.20368809 0.044850376 0.35116798 -0.0697561 0.36464238
-0.37633365 -0.24289647 -0.2356941 -0.29242814 -0.3401213 -0.2494931 -0.13199088 -0.17833352
0.300528 -0.45848697 0.059167642 -0.38242054 -0.23126505 0.118899524 0.34023798 0.32126176
-0.20174065 -0.16527219 -0.24606779 -0.29825518 -0.44391766 0.363494 -0.2140274 -0.02035753
-0.33104742 0.16461945 0.33538577 -0.12697579 -0.08837638 -0.25970712 -0.14947374 -0.12904869
0.27909386 0.34792787 -0.25859523 0.25444221 -0.121304676 0.19526526 0.2527819 -0.32229882
0.3100946 -0.24919671 -0.14549431 -0.22545242 0.3134143 0.31970692 0.047744676 0.2611922
0.23521353 0.08071037 -0.25369143 0.2873258 -0.08592969 0.24010226 0.22413124 -0.08138995
-0.08114524 0.26870015 -0.05474684 -0.22545886 0.22304693 -0.33207515 0.16300803 -0.44423828
-0.4045733 -0.20878202 -0.08528702 0.33900946 -0.10984724 -0.09980707 -0.40290564 0.3950451
0.29383484 0.2224006 -0.16177166 -0.095571265 0.35555968 0.19166356 -0.21918085 -0.29372677
-0.22477597 -0.14435202 0.2399137 -0.19414182 -0.19066603 0.24750486 -0.2148081 -0.16936739
0.27866024 -0.25153556 0.08477344 0.2873576 0.25144732 -0.18225536 0.017446702 0.27644274
0.2980026 0.31372288 -0.24292304 -0.20427345 -0.2293908 0.30084977 -0.24685591 0.2668991
-0.25308567 0.18672606 -0.2942634 -0.29010752 -0.4110146 0.25151289 0.0346109 0.061116327
0.3280904 0.20965159 0.2633529 -0.08381985 -0.17714891 -0.13335001 -0.06409585 -0.20765573
0.33115122 0.39750618 0.27454916 0.27313033 -0.22346413 0.29372805 0.06894564 -0.209862
0.41513953 -0.21959649 0.3079002 0.417712 -0.09761147 0.04851086 0.3082283 -0.34069154
-0.07342052 0.19061902 -0.20252998 -0.2628316 -0.1787586 -0.1281177 -0.37160003 0.011054366
-0.15068208 -0.14109536 -0.2750919 -0.26486742 -0.17730163 0.31550524 -0.24110635 0.079546906
-0.16650395 0.3251494 0.2721511 -0.344673 0.46780357 0.1703409 0.28962064 -0.46100554
-0.051108375 -0.14804421 0.34067306 0.19067147 0.27404636 0.29000524 -0.19187441 -0.21349664
0.37870795 -0.3751521 0.20442961 -0.11779495 0.019330665 -0.31605694 0.24320406 -0.2415182
-0.19358753 0.27840015 -0.29096496 0.27173454 -0.14211302 -0.22821334 -0.20991285 -0.1279998

fc2.bias f4 [10]
00000000: 73df 233e e7b1 133f 66c4 76be 6133 89be
00000010: 71bf 6bbd 04db 96bd 3714 85be da4b ecbd
00000020: 0dc3 b33e a882 4a3e
0.16003208 0.5769333 -0.24098358 -0.26797011 -0.05755562 -0.07365993 -0.25991985 -0.11537905
0.3510975 0.19776404
